output/models/system7/0-model.pth (torch, 2579 bytes, 6 tensors)

shared_weight_matrix f4 [6, 6]
000000 9b e7 4c 3f 51 40 98 be 69 44 ce 3d 81 b9 a6 be
       0.800409 -0.2973657 0.10071642 -0.32563403
000010 b2 4c f0 3e d5 5f d5 3c 7c c6 42 3c 50 a3 86 3f
       0.46933514 0.026046673 0.011888143 1.0518589
000020 a1 1e d8 3b d0 24 71 be b7 dc c7 3e 4c 7a 77 bd
       0.006595448 -0.23549199 0.3903558 -0.060419366
000030 56 3a 2c 3c ef 59 4b 3e 7c 9f b5 3f 6d 86 ad 3e
       0.010511955 0.19858526 1.4189296 0.3389162
000040 f5 2b e0 be 77 23 3b be 25 71 00 3d b1 fc 01 be
       -0.43783537 -0.18275248 0.031357903 -0.1269405
000050 f2 26 32 bd 70 b6 57 3f 21 b7 0e be 62 df 12 be
       -0.043494172 0.8426275 -0.13937046 -0.14343026
000060 53 77 cf bd 5a 09 59 bd 80 e0 4d 3d eb b5 5f 3c
       -0.10130181 -0.052987434 0.050262928 0.0136542125
000070 91 79 90 3f 80 ab f0 3b 4b 77 a6 be 03 59 09 bf
       1.1287099 0.007344663 -0.32512888 -0.53651446
000080 c2 54 b1 3e 36 c8 fb be 98 85 02 3f 63 bc d0 3e
       0.34634978 -0.49176186 0.509851 0.40768728

weight_coefficients f4 [6]
000000 00 00 80 3f 00 00 80 3f 00 00 80 3f 00 00 80 3f
       1.0 1.0 1.0 1.0
000010 00 00 80 3f 00 00 80 3f
       1.0 1.0

bias f4 [6]
000000 29 d0 22 bf f9 58 e0 c0 59 06 8a 40 a3 d8 17 bf
       -0.6359888 -7.010861 4.313275 -0.59314936
000010 d8 7f 07 c0 03 60 4e 3f
       -2.117178 0.8061525

layer2.weight f4 [2, 6]
000000 8e ac c2 be af e8 bd be 68 5e 51 3d 79 a1 34 3e
       -0.38022274 -0.37091586 0.051115423 0.17639722
000010 4e 12 8b 3c 47 29 22 bf 2c d4 ef 3e a6 c0 01 3f
       0.016976502 -0.63344234 0.46841562 0.50684583
000020 c7 9b c3 be 25 5a 03 bf a6 7e 07 3f f7 c2 88 3e
       -0.38204786 -0.51309425 0.52927625 0.26711246

layer2.bias f4 [2]
000000 dd 18 42 be d2 01 a7 3e
       -0.18954797 0.32618576

output_layer.weight f4 [1, 2]
000000 37 ba 8a 3e 35 9a 49 bf
       0.27095196 -0.78750926
