output/models/system2/0-model.pth (torch, 2451 bytes, 6 tensors)

shared_weight_matrix f4 [2, 2]
1.0 0.0 0.0 1.0
00000000: 0000 803f 0000 0000 0000 0000 0000 803f

weight_coefficients f4 [6]
1.0 1.0 1.0 1.0 1.0 1.0
00000000: 0000 803f 0000 803f 0000 803f 0000 803f
00000010: 0000 803f 0000 803f

bias f4 [6]
0.04952717 0.89039516 -3.2206545 -1.8779979 -1.943088 2.751764
00000000: 00dd 4a3d f0f0 633f 341f 4ec0 3c62 f0bf
00000010: 1cb7 f8bf e71c 3040

layer2.weight f4 [2, 6]
0.18892717 -0.03791207 0.3590225 0.027664214 -0.3131719 -0.17461818 0.39221877 -0.1929653
-0.1357427 0.23684406 0.35717934 -0.22518493
00000000: 2076 413e b049 1bbd ccd1 b73e 10a0 e23c
00000010: 1158 a0be 1ccf 32be e6d0 c83e b298 45be
00000020: 2200 0bbe 4087 723e 36e0 b63e e196 66be

layer2.bias f4 [2]
0.008637428 -0.17628877
00000000: 0084 0d3c 0b85 34be

output_layer.weight f4 [1, 2]
-0.6848014 -0.28418154
00000000: 254f 2fbf 3e80 91be
