model.pth (torch, 2497 bytes, 6 tensors)

shared_weight_matrix f4 [2, 2]
000000 9f 66 27 3f e7 01 67 3f df 8a 98 3a 7f e6 cb 3f
       0.6539096 0.9023728 0.0011638066 1.5929717

weight_coefficients f4 [10]
000000 00 00 80 3f 00 00 80 3f 00 00 80 3f 00 00 80 3f
       1.0 1.0 1.0 1.0
000010 00 00 80 3f 00 00 80 3f 00 00 80 3f 00 00 80 3f
       1.0 1.0 1.0 1.0
000020 00 00 80 3f 00 00 80 3f
       1.0 1.0

bias f4 [10]
000000 4e 4f a6 bf d1 fc ac bf 3d e0 3e bf c1 8d 0e 3f
       -1.2992952 -1.3514653 -0.7456091 0.5568505
000010 35 13 ba 3e 04 f3 3e be 1b 0e 24 40 2b ab de bf
       0.3634278 -0.1864739 2.563361 -1.7395986
000020 62 3c 3d c0 f5 4d c2 3f
       -2.9568105 1.5180041

layer2.weight f4 [2, 10]
000000 1f d3 1b be 31 24 9a 3e 97 95 ed 3e 3c af 0b 3d
       -0.15217255 0.30105737 0.4640319 0.034102663
000010 c1 0e c3 3e b0 9c 40 3e a9 47 bc 3d a1 e7 0d 3f
       0.38097194 0.18809772 0.091933556 0.5543156
000020 30 3a a0 bd 17 90 3e 3c fb e6 b7 3e 9d d3 7b 3e
       -0.078235984 0.011631033 0.35918412 0.24592443
000030 d6 d9 8e 3e ad a5 2a 3f 19 11 87 3f c1 99 c9 3e
       0.2790057 0.6665905 1.0552093 0.39375117
000040 1a 6e 26 be 46 50 31 3f 64 15 d9 3e 5d 03 d8 3e
       -0.16252938 0.6926311 0.42399132 0.42190066

layer2.bias f4 [2]
000000 30 d9 16 bf 2a 6b b8 be
       -0.5892515 -0.3601926

output_layer.weight f4 [1, 2]
000000 7f c9 42 bf 1f c7 93 bf
       -0.7608871 -1.1545142
