output/models/system3/0-model.pth (torch, 2451 bytes, 6 tensors)

shared_weight_matrix f4 [2, 2]
00000000: 44be 673f a2db c53c 86e4 9bbe 669e c03f
0.905247 0.02415258 -0.30447787 1.5048339

weight_coefficients f4 [6]
00000000: 0000 803f 0000 803f 0000 803f 0000 803f
00000010: 0000 803f 0000 803f
1.0 1.0 1.0 1.0 1.0 1.0

bias f4 [6]
00000000: 369b 7c3f c7a4 46c0 7685 8fbf f1ef 59c0
00000010: a686 863f 0032 453d
0.98674333 -3.1038072 -1.1212604 -3.4052699 1.0509841 0.048143387

layer2.weight f4 [2, 6]
00000000: e53e 92be a696 863e bbb4 2d3f 8298 363f
00000010: 5c1e 653a a6d1 b9bd fa8d 393e 311c 44bd
00000020: d4bf 023e 7704 9a3e dcea cbbc 40b7 2d3d
-0.2856361 0.2628681 0.678539 0.7132646 0.00087401806 -0.090731904 0.18120566 -0.047878448
0.12768489 0.3008153 -0.024892263 0.04241109

layer2.bias f4 [2]
00000000: 9b2b e8bd 37b4 373d
-0.11336442 0.0448496

output_layer.weight f4 [1, 2]
00000000: 043d 24bf a572 7fbc
-0.641556 -0.015591298
