paper_figures_with_models/straight_separatrix/0-model.pth (torch, 2451 bytes, 6 tensors)

shared_weight_matrix f4 [2, 2]
0	0xbf6e88ea	-0.93177664
1	0xbfd24a30	-1.642889
2	0xbf756b9d	-0.9586733
3	0x3fa96cfb	1.3236383

weight_coefficients f4 [2]
0	0x3f800000	1.0
1	0x3f800000	1.0

bias f4 [2]
0	0x3f036437	0.5132479
1	0xbfc9e51d	-1.5773045

layer2.weight f4 [2, 2]
0	0x3f65727b	0.8962781
1	0x3d78d9fe	0.06075477
2	0xbf393d17	-0.7235884
3	0x3d6cba97	0.057795133

layer2.bias f4 [2]
0	0xbd9e9681	-0.0774355
1	0xbeea6913	-0.4578329

output_layer.weight f4 [1, 2]
0	0x3f3bf637	0.7342257
1	0xbf0125d4	-0.50448346
