paper_figures_with_models/straight_separatrix/thresholded_model.pth (torch, 2451 bytes, 6 tensors)

shared_weight_matrix f4 [2, 2]
-0.010093632 -0.535365 1.5584248 2.6892047
00000000: c35f 25bc ae0d 09bf 777a c73f ee1b 2c40

weight_coefficients f4 [2]
1.0 1.0
00000000: 0000 803f 0000 803f

bias f4 [2]
1.6202219 0.31439167
00000000: 6e63 cf3f f2f7 a03e

layer2.weight f4 [2, 2]
0.2532701 -1.4315345 0.15818577 -0.84017533
00000000: 9eac 813e 863c b7bf 73fb 213e bb15 57bf

layer2.bias f4 [2]
0.02979724 0.6834041
00000000: 5719 f43c 92f3 2e3f

output_layer.weight f4 [1, 2]
1.5330864 0.74227107
00000000: 2d3c c43f 7a05 3e3f
