output/models/system6/0-model.pth (torch, 2451 bytes, 6 tensors)

shared_weight_matrix f4 [4, 4]
0.9515212 0.35793266 0.024638714 -0.04195943 -0.025947515 1.3334184 0.006532265 -0.1252665
-0.26844937 0.31745026 0.60663426 -0.2464287 -0.24702913 0.29144216 -0.16764474 0.7040659
00000000: e596 733f f342 b73e 21d7 c93c a7dd 2bbd
00000010: e28f d4bc 74ad aa3f 9c0c d63b dd45 00be
00000020: 3272 89be d788 a23e 624c 1b3f ce57 7cbe
00000030: 34f5 7cbe e837 953e 10ab 2bbe aa3d 343f

weight_coefficients f4 [8]
1.0 1.0 1.0 1.0 1.0 1.0 1.0 1.0
00000000: 0000 803f 0000 803f 0000 803f 0000 803f
00000010: 0000 803f 0000 803f 0000 803f 0000 803f

bias f4 [8]
0.3408852 1.0778531 0.22046266 -2.1084704 1.0183033 1.6773617 1.3531146 -0.600551
00000000: 8188 ae3e 17f7 893f f7c0 613e 2ef1 06c0
00000010: c357 823f cab3 d63f dc32 ad3f b6bd 19bf

layer2.weight f4 [2, 8]
-0.13290764 0.28152302 0.16625406 0.6039976 0.17043522 -0.09130098 0.07112577 0.23298258
-0.06063479 -0.28507152 -0.6174342 -0.68905467 -0.038688313 0.027490031 -0.018330237 -0.16047673
00000000: f118 08be c923 903e 813e 2a3e 969f 1a3f
00000010: 9286 2e3e 02fc babd 63aa 913d fc92 6e3e
00000020: 305c 78bd e5f4 91be 2b10 1ebf e365 30bf
00000030: a377 1ebd c632 e13c 4b29 96bc 0354 24be

layer2.bias f4 [2]
0.15239657 0.3783588
00000000: d90d 1c3e 3fb8 c13e

output_layer.weight f4 [1, 2]
0.3995692 -0.65322125
00000000: 5694 cc3e 8239 27bf
