output/models/system4/0-model.pth (torch, 2515 bytes, 6 tensors)

shared_weight_matrix f4 [2, 2]
000000 fb 62 c1 3f c8 e0 66 3e b0 e6 fa 3c 86 74 2e 3f
       1.5108331 0.22546685 0.030627578 0.6814655

weight_coefficients f4 [6]
000000 00 00 80 3f 00 00 80 3f 00 00 80 3f 00 00 80 3f
       1.0 1.0 1.0 1.0
000010 00 00 80 3f 00 00 80 3f
       1.0 1.0

bias f4 [6]
000000 8e d9 8a 40 20 50 69 be b1 ba a4 be 96 71 82 bf
       4.339057 -0.22784472 -0.32173684 -1.0190914
000010 57 83 4e c0 71 62 d4 bf
       -3.2267663 -1.6592542

layer2.weight f4 [3, 6]
000000 5a 98 10 bf 14 8d 97 3e a5 20 1b 3e 0a 11 53 3e
       -0.5648247 0.29599822 0.15149172 0.20611969
000010 f9 ff a8 3d cb 0d 3a 3f 92 4d 29 3f e6 b7 fd bd
       0.08251948 0.72677296 0.6613399 -0.123885915
000020 ba 22 dd be 9c 75 b0 bd 48 9d ec 3d 76 d4 8e bd
       -0.43190557 -0.08616182 0.115534365 -0.069741175
000030 b6 e6 c1 3e 4e f9 72 3e ff d2 ca bc 9c 33 f0 be
       0.3787133 0.23727915 -0.024758814 -0.46914375
000040 80 22 ba be 25 51 e7 be
       -0.36354446 -0.45179096

layer2.bias f4 [3]
000000 fe 6b 1c be c5 32 e0 bd 22 d2 86 bd
       -0.15275571 -0.109471835 -0.065830484

output_layer.weight f4 [1, 3]
000000 09 e0 c5 be 56 31 a0 3e e2 23 5c 3e
       -0.38647488 0.3128764 0.21498063
