paper_figures_with_models/radial_2labels/0-model.pth (torch, 2451 bytes, 6 tensors)

shared_weight_matrix f4 [2, 2]
000000 d0 58 87 3f e3 c8 be be e7 11 e5 3e a9 da 8c 3f
       1.0573978 -0.3726264 0.4474022 1.100423

weight_coefficients f4 [4]
000000 00 00 80 3f 00 00 80 3f 00 00 80 3f 00 00 80 3f
       1.0 1.0 1.0 1.0

bias f4 [4]
000000 75 70 15 40 ad bd b3 bf 26 9e ba bf 07 6d 1a 40
       2.3349888 -1.404226 -1.4579513 2.4129045

layer2.weight f4 [2, 4]
000000 06 09 55 bf 9f 30 4b 3f 7f 46 8c 3f c5 3e f9 be
       -0.83216894 0.79371065 1.0959014 -0.48680702
000010 32 7a 4d bf 20 16 65 3f ea 85 16 3f ca 4b 90 bf
       -0.8026458 0.89486885 0.58798087 -1.1273129

layer2.bias f4 [2]
000000 17 4c 7a 3f 18 7e 23 3f
       0.97772354 0.6386428

output_layer.weight f4 [1, 2]
000000 36 bd 94 bf 4c 6a 91 bf
       -1.1620243 -1.1360564
