output/models/system5/0-model.pth (torch, 2451 bytes, 6 tensors)

shared_weight_matrix f4 [4, 4]
0.978104 0.49687767 0.18663114 0.0631338 -0.41720667 1.5300554 0.22724219 -0.20538302
-0.30562046 -0.3717832 0.85731924 -0.084153704 0.05731394 0.13601612 0.02460174 0.7468051
00000000: 0665 7a3f c066 fe3e 3c1c 3f3e 4b4c 813d
00000010: 1d9c d5be dbd8 c33f 2db2 683e ed4f 52be
00000020: 497a 9cbe 5e5a bebe 4679 5b3f c758 acbd
00000030: 06c2 6a3d cf47 0b3e 9789 c93c 9e2e 3f3f

weight_coefficients f4 [8]
1.0 1.0 1.0 1.0 1.0 1.0 1.0 1.0
00000000: 0000 803f 0000 803f 0000 803f 0000 803f
00000010: 0000 803f 0000 803f 0000 803f 0000 803f

bias f4 [8]
0.071937256 -1.3138968 -1.6692841 2.3006203 1.4286454 1.5090822 1.6937107 -0.38571775
00000000: d753 933d c52d a8bf 1aab d5bf 5d3d 1340
00000010: dadd b63f 9b29 c13f 83cb d83f cc7c c5be

layer2.weight f4 [2, 8]
0.6480724 0.6956997 0.3233524 0.578891 -0.00976187 0.092478685 -0.118904784 -0.18053634
0.2879847 0.3992067 0.7691487 0.22209765 0.08590782 -0.49302176 0.0020479823 0.21452568
00000000: 13e8 253f 6019 323f 728e a53e 3332 143f
00000010: 40f0 1fbc 7765 bd3d 5a84 f3bd 85de 38be
00000020: bb72 933e d264 cc3e eee6 443f 916d 633e
00000030: 70f0 af3d 596d fcbe 7137 063b 9fac 5b3e

layer2.bias f4 [2]
-0.46861297 -0.30518344
00000000: 0aee efbe 0141 9cbe

output_layer.weight f4 [1, 2]
-0.3821719 -0.7922917
00000000: 09ac c3be a1d3 4abf
