output/models/system1/0-model.pth (torch, 2451 bytes, 6 tensors)

shared_weight_matrix f4 [2, 2]
0	0x3f800000	1.0
1	0x00000000	0.0
2	0x00000000	0.0
3	0x3f800000	1.0

weight_coefficients f4 [2]
0	0x3f800000	1.0
1	0x3f800000	1.0

bias f4 [2]
0	0xbfcd9122	-1.6059916
1	0x4003f848	2.062029

layer2.weight f4 [2, 2]
0	0x3f10f2c7	0.5662045
1	0xbded6118	-0.11590785
2	0xbe67b264	-0.22626644
3	0x3ef8fa0e	0.48628277

layer2.bias f4 [2]
0	0xbe98cf34	-0.29845583
1	0xbe8f73b6	-0.28017968

output_layer.weight f4 [1, 2]
0	0xbe16f3a8	-0.14741385
1	0xbe501758	-0.20321405
