output/models/system1/0-model.pth (torch, 2451 bytes, 6 tensors)

shared_weight_matrix f4 [2, 2]
0	0x3f2b062c	0.6680629
1	0xbed6e70b	-0.41973147
2	0x3edf8275	0.43654218
3	0x3f7bd6a6	0.983744

weight_coefficients f4 [6]
0	0x3f800000	1.0
1	0x3f800000	1.0
2	0x3f800000	1.0
3	0x3f800000	1.0
4	0x3f800000	1.0
5	0x3f800000	1.0

bias f4 [6]
0	0xbfa46e2c	-1.2846122
1	0x3da71313	0.08157935
2	0xbfd3e0cd	-1.6552979
3	0x3fc5c2a6	1.5450027
4	0x3ede0ca9	0.43369034
5	0xbf9e87bc	-1.2385173

layer2.weight f4 [2, 6]
0	0x3deb16c9	0.11478955
1	0xbede458a	-0.4341243
2	0xbe35b920	-0.17746401
3	0x3e8ec9d1	0.2788835
4	0x3e8d02e9	0.27541283
5	0x3dd463a3	0.10370567
6	0xbeac813a	-0.33692342
7	0xbe1238e5	-0.14279516
8	0xbf0ab7d2	-0.5418674
9	0x3e5ea8e1	0.2174411
10	0x3f1d3f78	0.6142497
11	0x3e73af25	0.23797281

layer2.bias f4 [2]
0	0xbf003721	-0.5008412
1	0xbebf9717	-0.3741996

output_layer.weight f4 [1, 2]
0	0xbe4925c3	-0.19643311
1	0xbf27af50	-0.6550188
