output/models/system1/0-model.pth (torch, 2451 bytes, 6 tensors)

shared_weight_matrix f4 [2, 2]
0.91018414 0.30273882 1.2397475 2.1602361
00000000: d401 693f 9500 9b3e 0cb0 9e3f 4f41 0a40

weight_coefficients f4 [4]
1.0 1.0 1.0 1.0
00000000: 0000 803f 0000 803f 0000 803f 0000 803f

bias f4 [4]
-0.40084532 -1.3782208 0.34185436 0.16813385
00000000: 993b cdbe 8a69 b0bf 8907 af3e 482b 2c3e

layer2.weight f4 [2, 4]
-0.07342816 -0.479694 -0.90796685 -1.0504336 0.13650995 -0.37161303 -0.9559362 -0.8768849
00000000: 8161 96bd 749a f5be 8470 68bf 9c74 86bf
00000010: 44c9 0b3e 1044 bebe 3cb8 74bf 877b 60bf

layer2.bias f4 [2]
0.28890675 0.72554934
00000000: 96eb 933e 9abd 393f

output_layer.weight f4 [1, 2]
0.895654 0.70730716
00000000: 9549 653f 1512 353f
