output/models/system1/1004-model.pth (torch, 2606 bytes, 6 tensors)

shared_weight_matrix f4 [2, 2]
00000000: 10e1 493f 69a8 2ebe b634 d73e 6ec3 533f
0.78859043 -0.17056431 0.42032403 0.8272008

weight_coefficients f4 [12]
00000000: 0000 803f 0000 803f 0000 803f 0000 803f
00000010: 0000 803f 0000 803f 0000 803f 0000 803f
00000020: 0000 803f 0000 803f 0000 803f 0000 803f
1.0 1.0 1.0 1.0 1.0 1.0 1.0 1.0
1.0 1.0 1.0 1.0

bias f4 [12]
00000000: 42ed d6bf c9a2 18bf 5d83 4d3f e894 e0bf
00000010: 392f f7bf a912 a93f bf3c 6840 9569 bb3e
00000020: 4032 3c40 160b 2a40 1101 463f 03d1 3d40
-1.6791155 -0.5962339 0.8027857 -1.7545443 -1.9311286 1.320882 3.6287076 0.3660399
2.940567 2.6569266 0.7734538 2.965882

layer2.weight f4 [2, 12]
00000000: 74e5 a9be 56c1 c5bd 9227 a23e 1517 afbe
00000010: 4e70 38be f30c 68bd 3c94 b8be e698 023f
00000020: d642 f93d 0bee bfbd 4688 e83e e2bc 00be
00000030: 9d31 d73e b008 84be 76d4 3b3d f0cb 953d
00000040: 2db8 2d3e 044a 823d 3a59 033e 7e9b 03bf
00000050: 4583 d93d 412c bc3d aac2 0fbf 0a8d 96bd
-0.3318287 -0.096560165 0.31670815 -0.34197298 -0.18011591 -0.056652974 -0.36050594 0.51014555
0.12170951 -0.09371575 0.45416468 -0.12572053 0.4203004 -0.25787878 0.045856915 0.073142886
0.16964789 0.063617736 0.12827006 -0.5140914 0.10620741 0.09188128 -0.5615641 -0.0735112

layer2.bias f4 [2]
00000000: 4ce4 16be 2766 fb3e
-0.14735526 0.49101374

output_layer.weight f4 [1, 2]
00000000: 2da0 58bf d4d5 373f
-0.8461941 0.7181065
