output/models/system1/1005-model.pth (torch, 2606 bytes, 6 tensors)

shared_weight_matrix f4 [2, 2]
0	0x3f5b895f	0.85756487
1	0x3e9f7373	0.31142768
2	0x3edf5065	0.43616024
3	0x3f71d791	0.94469553

weight_coefficients f4 [12]
0	0x3f800000	1.0
1	0x3f800000	1.0
2	0x3f800000	1.0
3	0x3f800000	1.0
4	0x3f800000	1.0
5	0x3f800000	1.0
6	0x3f800000	1.0
7	0x3f800000	1.0
8	0x3f800000	1.0
9	0x3f800000	1.0
10	0x3f800000	1.0
11	0x3f800000	1.0

bias f4 [12]
0	0x3fc9b90f	1.57596
1	0xbf9f7d82	-1.2460177
2	0x3ed9b37b	0.42519745
3	0x3f61cb88	0.8820119
4	0x3c9e2710	0.019305736
5	0xbf4b5a94	-0.79435086
6	0x3e469d18	0.19395864
7	0x3f255230	0.64578533
8	0x3eef259f	0.4670839
9	0xbffe46f4	-1.9865403
10	0xc0508003	-3.2578132
11	0x403ab124	2.9170618

layer2.weight f4 [2, 12]
0	0x3e02cf1f	0.12774323
1	0x3d3ce589	0.04611734
2	0x3e686413	0.22694425
3	0xbdab33bb	-0.08359476
4	0x3e11f184	0.14252287
5	0x3e1cef40	0.15325642
6	0x3e62d84e	0.22152826
7	0x3ec4654e	0.3835854
8	0x3f09c4d1	0.53815943
9	0x3e4c5a67	0.19956361
10	0x3d02a3f5	0.031894643
11	0xbe9cf7a0	-0.30657673
12	0x3da2ef8a	0.07955845
13	0xbe5bb406	-0.21455392
14	0xbda79246	-0.08182196
15	0xbe7e87f4	-0.2485655
16	0x3e3ca0f8	0.1842078
17	0xbe99e1fb	-0.30055222
18	0xbe93fa81	-0.28902057
19	0xbee4245c	-0.4455899
20	0xbea64c5a	-0.32480127
21	0xbd9352d2	-0.07193531
22	0x3dbf80d5	0.09350745
23	0xbdd4f2c6	-0.10397868

layer2.bias f4 [2]
0	0xbdba5551	-0.09098304
1	0x3f07b392	0.5300838

output_layer.weight f4 [1, 2]
0	0xbf2defaf	-0.67943853
1	0x3f342016	0.7036146
