output/models/system1/4-model.pth (torch, 2451 bytes, 6 tensors)

shared_weight_matrix f4 [2, 2]
00000000: e6e6 283f 61e6 cb3e b78f ea3d 8a2f af3f
0.65977323 0.39824203 0.11453193 1.3686383

weight_coefficients f4 [4]
00000000: 0000 803f 0000 803f 0000 803f 0000 803f
1.0 1.0 1.0 1.0

bias f4 [4]
00000000: 5a9e f33e 04d4 503f 9d6b ae3c e167 3f40
0.4758175 0.8157351 0.021291548 2.9907153

layer2.weight f4 [2, 4]
00000000: 46dd abbe 0dec c83d ab62 09bf 236d 9ebe
00000010: 8357 b63e f22b 723e 0bce 9ebc c5af 663e
-0.33567256 0.09810648 -0.5366618 -0.3094264 0.3561364 0.23649576 -0.019385358 0.22527988

layer2.bias f4 [2]
00000000: 00c6 ff3d b231 76be
0.124889374 -0.24042395

output_layer.weight f4 [1, 2]
00000000: ca54 433f 2506 28be
0.7630125 -0.16408594
