output/models/system1/5-model.pth (torch, 2451 bytes, 6 tensors)

shared_weight_matrix f4 [2, 2]
00000000: 4798 473f ad0a b7be bf32 a63e 4ba5 a23f
0.7796673 -0.35750332 0.3246059 1.2706693

weight_coefficients f4 [4]
00000000: 0000 803f 0000 803f 0000 803f 0000 803f
1.0 1.0 1.0 1.0

bias f4 [4]
00000000: bdab 4bbf f997 13bf 6590 ae3e 54d6 1240
-0.79558927 -0.57653767 0.3409454 2.2943316

layer2.weight f4 [2, 4]
00000000: 888d a2be 5bce d73e 6139 0f3e 46a6 103e
00000010: 9e15 843e 17b6 4e3d 7d89 36bf 90aa 7abe
-0.31748605 0.42149624 0.13986732 0.14125928 0.25797743 0.050466623 -0.7130354 -0.24479127

layer2.bias f4 [2]
00000000: befe 9f3c 230f db3e
0.01953065 0.42784986

output_layer.weight f4 [1, 2]
00000000: 5dce 0fbe d178 363f
-0.14043565 0.712781
