output/models/system1/5-model.pth (torch, 2451 bytes, 6 tensors)

shared_weight_matrix f4 [2, 2]
000000 01 25 0a 3f 36 12 4f 3f da e5 9c 3f 16 df 11 40
       0.53962713 0.8088716 1.2257645 2.279241

weight_coefficients f4 [5]
000000 00 00 80 3f 00 00 80 3f 00 00 80 3f 00 00 80 3f
       1.0 1.0 1.0 1.0
000010 00 00 80 3f
       1.0

bias f4 [5]
000000 41 90 29 3e b8 68 28 3e be 31 7a 3e 2a 7d 5b c0
       0.16558935 0.16446197 0.24433038 -3.4295144
000010 69 13 84 3e
       0.2579606

layer2.weight f4 [2, 5]
000000 aa 89 2f 3f 68 00 8a 3f 1c 28 a8 3f 23 a2 8d be
       0.68569434 1.0781374 1.313724 -0.27662763
000010 d2 d5 fc 3e b4 9f 20 bf 3d 9f 3f be 60 a5 90 bd
       0.49381882 -0.6274369 -0.18713088 -0.07062793
000020 b9 58 14 be 1e 45 84 be
       -0.1448697 -0.25833982

layer2.bias f4 [2]
000000 ab 93 f8 be eb 52 56 3e
       -0.48550162 0.20930068

output_layer.weight f4 [1, 2]
000000 ee a3 b1 bf 79 7d 19 3f
       -1.3878152 0.5995708
