output/models/system1/504-model.pth (torch, 2533 bytes, 6 tensors)

shared_weight_matrix f4 [2, 2]
00000000: 0000 803f 0000 0000 0000 0000 0000 803f
1.0 0.0 0.0 1.0

weight_coefficients f4 [8]
00000000: 0000 803f 0000 803f 0000 803f 0000 803f
00000010: 0000 803f 0000 803f 0000 803f 0000 803f
1.0 1.0 1.0 1.0 1.0 1.0 1.0 1.0

bias f4 [8]
00000000: c041 453d 00ce 343f 7481 26bf 28ed debf
00000010: e063 a7bf 5c64 f5bf 6ed5 07c0 0c0e e13f
0.048158407 0.7062683 -0.6504128 -1.7416124 -1.3077354 -1.9171252 -2.1224017 1.7582412

layer2.weight f4 [2, 8]
00000000: e2c4 313e a566 00be 640c aabd 93a5 863e
00000010: 6807 10bd 26a1 393e c082 d93d c0e0 0b3c
00000020: 06a8 48be a804 2b3d 400d 083e e2cb 10be
00000030: 5863 033e e420 fe3d be5f 393e 00b8 b33b
0.17360261 -0.12539156 -0.083031446 0.26298198 -0.035163313 0.1812788 0.10620642 0.008537471
-0.19595346 0.041752487 0.13286304 -0.14140275 0.12830865 0.12408617 0.18102929 0.005484581

layer2.bias f4 [2]
00000000: 4c0b 82bd d0f0 59be
-0.06349811 -0.21283269

output_layer.weight f4 [1, 2]
00000000: f7ae 0ebf a9e7 1cbf
-0.55735725 -0.61290985
