output/models/system1/505-model.pth (torch, 2533 bytes, 6 tensors)

shared_weight_matrix f4 [2, 2]
000000 ad 4d 44 3f cc 7a d8 be 13 d7 e6 3e 80 ab 52 3f
       0.76681024 -0.42281187 0.45085964 0.8229294

weight_coefficients f4 [8]
000000 00 00 80 3f 00 00 80 3f 00 00 80 3f 00 00 80 3f
       1.0 1.0 1.0 1.0
000010 00 00 80 3f 00 00 80 3f 00 00 80 3f 00 00 80 3f
       1.0 1.0 1.0 1.0

bias f4 [8]
000000 6e c5 e0 bf ab 76 f9 3f a6 a1 ae bf 75 7c 8a 3e
       -1.7560251 1.948934 -1.3643081 0.27048078
000010 c4 a5 5b 40 2a fa 33 40 33 d5 ad 3f ce d9 c7 3d
       3.4319925 2.8121438 1.3580688 0.0975834

layer2.weight f4 [2, 8]
000000 4d 9d ab bd f6 2c 6b 3c c0 1d 4a bd b9 dd 07 bd
       -0.08379612 0.014353981 -0.049344778 -0.033170436
000010 e2 f4 68 be 7a e6 a4 bd b9 c2 83 3e 06 c7 47 3f
       -0.22749665 -0.080517724 0.257345 0.7803806
000020 0b 16 06 bf 5c 16 4f be ba b2 b5 3d bc 2a a0 bd
       -0.52377385 -0.20223373 0.0887198 -0.07820651
000030 21 0f 36 be 00 09 32 3d f5 44 16 3e 3c 9f 19 3f
       -0.17779209 0.043465614 0.14674743 0.600086

layer2.bias f4 [2]
000000 a3 f7 04 3e 72 9c b8 be
       0.12985091 -0.36056858

output_layer.weight f4 [1, 2]
000000 60 b8 02 bf f2 70 30 bf
       -0.51062584 -0.6892234
