output/models/system1/jobindex0.pth (torch, 2469 bytes, 6 tensors)

shared_weight_matrix f4 [2, 2]
0	0x3eeffd17	0.4687278
1	0x3f4cd1d9	0.800077
2	0xba796c09	-0.00095146947
3	0x3f364413	0.71197623

weight_coefficients f4 [4]
0	0x3f800000	1.0
1	0x3f800000	1.0
2	0x3f800000	1.0
3	0x3f800000	1.0

bias f4 [4]
0	0x3e9beb64	0.30453026
1	0x3f0f4b29	0.5597406
2	0x406894ac	3.6340742
3	0xc0387c68	-2.8825932

layer2.weight f4 [2, 4]
0	0xbf6301e2	-0.8867475
1	0xbf4abb68	-0.7919221
2	0x3ebb09a1	0.36530784
3	0x3e8b2589	0.27177075
4	0x3f0ccff8	0.55004835
5	0x3e3c046f	0.18361066
6	0xbdad83a3	-0.08472373
7	0xbe37659e	-0.17909858

layer2.bias f4 [2]
0	0x3f19a074	0.6001046
1	0xbdeac5f7	-0.1146354

output_layer.weight f4 [1, 2]
0	0x3f6170e1	0.88062865
1	0xbea1a56c	-0.3157152
