output/models/system1/jobindex0.pth (torch, 2469 bytes, 6 tensors)

shared_weight_matrix f4 [2, 2]
000000 00 00 80 3f 00 00 00 00 00 00 00 00 00 00 80 3f
       1.0 0.0 0.0 1.0

weight_coefficients f4 [4]
000000 00 00 80 3f 00 00 80 3f 00 00 80 3f 00 00 80 3f
       1.0 1.0 1.0 1.0

bias f4 [4]
000000 0c ae 63 3f 80 5c 18 3f 58 b3 11 bf 46 fb 4d c0
       0.8893745 0.59516144 -0.5691428 -3.2184615

layer2.weight f4 [2, 4]
000000 08 b5 e6 3e 54 ed d4 3e 08 3f 4d 3e 00 30 6d 3a
       0.4505999 0.41587317 0.20043576 0.0009047985
000010 00 e6 24 bb 90 d9 0b be be 4a 8e 3e 94 c2 b1 be
       -0.0025161505 -0.13657212 0.277914 -0.34718764

layer2.bias f4 [2]
000000 dc 9d 4c be 50 5d 9c bd
       -0.19982094 -0.076349854

output_layer.weight f4 [1, 2]
000000 26 bd 70 be 00 38 c3 bb
       -0.23509654 -0.0059576035
