output/models/system1/jobindex0.pth (torch, 2533 bytes, 6 tensors)

shared_weight_matrix f4 [2, 2]
0	0x3f198e77	0.5998301
1	0x3f81ae87	1.0131387
2	0x3f35cb89	0.71013695
3	0x3fa537ee	1.2907693

weight_coefficients f4 [10]
0	0x3f800000	1.0
1	0x3f800000	1.0
2	0x3f800000	1.0
3	0x3f800000	1.0
4	0x3f800000	1.0
5	0x3f800000	1.0
6	0x3f800000	1.0
7	0x3f800000	1.0
8	0x3f800000	1.0
9	0x3f800000	1.0

bias f4 [10]
0	0x3eebc944	0.4605199
1	0x3dd81380	0.10550594
2	0x3e880243	0.26564226
3	0x40183716	2.3783622
4	0x3fae1e5f	1.3603019
5	0x406756a0	3.6146622
6	0x3ee17f63	0.440425
7	0xbfed041e	-1.8516881
8	0x40321c62	2.7829823
9	0xbfc210ec	-1.5161414

layer2.weight f4 [2, 10]
0	0xbf96a47a	-1.1768944
1	0xbfd3ed2e	-1.6556756
2	0xbfb6f4bf	-1.429344
3	0x3e3fc020	0.18725634
4	0x3e319232	0.17340925
5	0xbd2e0e93	-0.042494368
6	0xbf6bfcf9	-0.9218288
7	0xbe136ef1	-0.1439779
8	0xbe80ff07	-0.2519457
9	0xbe4fe0ea	-0.20300642
10	0xbf6e5f9b	-0.9311463
11	0xbf8035f9	-1.0016471
12	0xbf8315a4	-1.0240979
13	0x3ea84c70	0.32870817
14	0x3d1038d9	0.035210464
15	0x3edd4fb1	0.43224862
16	0xbf0276ef	-0.5096273
17	0xbebfa881	-0.37433246
18	0x3b93b57a	0.0045077177
19	0xbdf46290	-0.11932862

layer2.bias f4 [2]
0	0x3f527d6c	0.8222263
1	0x3f2090e3	0.6272108

output_layer.weight f4 [1, 2]
0	0x3f94e420	1.1632118
1	0x3f9a8705	1.2072455
