output/models/system1/jobindex0.pth (torch, 2469 bytes, 6 tensors)

shared_weight_matrix f4 [2, 2]
000000 00 00 80 3f 00 00 00 00 00 00 00 00 00 00 80 3f
       1.0 0.0 0.0 1.0

weight_coefficients f4 [4]
000000 00 00 80 3f 00 00 80 3f 00 00 80 3f 00 00 80 3f
       1.0 1.0 1.0 1.0

bias f4 [4]
000000 28 2d fb be d4 e1 2f 3f b0 10 f2 3f 40 f5 99 bf
       -0.4905789 0.6870396 1.8911343 -1.2027969

layer2.weight f4 [2, 4]
000000 4c 13 b1 3e e8 84 a1 3d b0 00 9e be a0 22 ff bd
       0.34585035 0.07886678 -0.308599 -0.12457776
000010 14 61 55 3e 5a 21 d1 3e 54 65 90 be 50 31 42 3e
       0.20837814 0.40845758 -0.28202307 0.18964124

layer2.bias f4 [2]
000000 ec 79 cd 3e 3c f4 10 3e
       0.40132082 0.14155668

output_layer.weight f4 [1, 2]
000000 90 d0 1f be 5a 9c fa 3e
       -0.15606904 0.48947412
