output/models/system1/jobindex0.pth (torch, 2469 bytes, 6 tensors)

shared_weight_matrix f4 [2, 2]
0	0x3f0bcaf4	0.54606557
1	0xbee31d16	-0.44358128
2	0x3f3baf78	0.7331462
3	0x3fe9e6ab	1.8273519

weight_coefficients f4 [4]
0	0x3f800000	1.0
1	0x3f800000	1.0
2	0x3f800000	1.0
3	0x3f800000	1.0

bias f4 [4]
0	0x40167712	2.3510175
1	0x3d744b24	0.059641972
2	0xbf0a0cb9	-0.53925663
3	0x3f71efa2	0.94506276

layer2.weight f4 [2, 4]
0	0x3e84e8f5	0.25958982
1	0x3e8903b3	0.26760635
2	0xbf07dbe5	-0.5306991
3	0xbe83ec38	-0.25766158
4	0x3f4d198f	0.80117124
5	0xbed61aea	-0.4181741
6	0xbec8b7e8	-0.3920281
7	0xbf4e5d6c	-0.806113

layer2.bias f4 [2]
0	0x3dffc0b6	0.124879286
1	0xbce35bae	-0.027753677

output_layer.weight f4 [1, 2]
0	0x3ec9ea8f	0.39436767
1	0x3f75b19c	0.95974135
