output/models/system1/jobindex0.pth (torch, 2469 bytes, 6 tensors)

shared_weight_matrix f4 [2, 2]
000000 54 78 73 3f ad a8 61 3e aa 1a 5f 3f a5 6b e9 3f
       0.9510548 0.22037001 0.8715006 1.8235976

weight_coefficients f4 [4]
000000 00 00 80 3f 00 00 80 3f 00 00 80 3f 00 00 80 3f
       1.0 1.0 1.0 1.0

bias f4 [4]
000000 6f cd 45 3f 42 46 a5 3f aa ff 0b c0 cb fc 53 3f
       0.7726659 1.2912066 -2.1874795 0.82807606

layer2.weight f4 [2, 4]
000000 bb 53 8c be 16 e6 16 bc cc bc 7b be 68 e2 60 bf
       -0.2740763 -0.00921013 -0.24583739 -0.8784547
000010 9b a2 c2 3d ba d5 8f be 89 d1 63 3f b7 c8 24 3e
       0.09503671 -0.28092748 0.889916 0.16092192

layer2.bias f4 [2]
000000 b3 34 30 3e 38 6c fc be
       0.17207603 -0.49301314

output_layer.weight f4 [1, 2]
000000 ba 4e 57 3f f3 16 29 bf
       0.841045 -0.6605064
